saved/saved_model.pkl (torch_old, 1489 bytes, 5 tensors)

input_to_hidden1.weight f4 [5, 6]
00000000: 2ed6 cd3e faa2 c83d a3c6 1f3e 4a79 8c3f
00000010: 9e5f d93e 6ee2 84bd c5b2 a83e cab6 573e
00000020: 6d55 193f 362a e23f 9f8e 1a3f 2c01 e33d
00000030: 29b2 fb3e 4a71 f6be 6836 ccbe 857c 2a3f
00000040: ed64 68bf acca 1540 b490 f23e d431 70c0
00000050: 54d1 8c3e e6b1 943f e030 303d 1e2c ea3f
00000060: 5321 5b3e 7c5f 1e3e eaa4 68c0 b5c3 1f3f
00000070: 6383 6f3d 81d4 853e
0.4020247 0.0979671 0.15603118 1.0974514 0.42455763 -0.064885005 0.3294889 0.21065822
0.59895974 1.7669132 0.6037387 0.11084208 0.49159363 -0.48133308 -0.3988526 0.6659625
-0.90779 2.340495 0.47376025 -3.7530413 0.27503455 1.161679 0.04301536 1.8294713
0.21399431 0.15466112 -3.6350656 0.62408 0.05847491 0.2613869

input_to_hidden1.bias f4 [5]
00000000: c53f bcbe 0ac7 60bf 3619 8bbf 5305 c5be
00000010: 3ba6 873f
-0.36767402 -0.8780371 -1.0867069 -0.38480625 1.0597605

input_to_hidden2.weight f4 [3, 5]
00000000: f855 b93a 838e 56be e101 b03d 761e 97be
00000010: 1d2f 8c3e 74e9 293f e062 6d3f 7806 0640
00000020: a046 17c0 74a2 23c0 b0d9 f9be 7ecb 92be
00000030: 707e 30be 7cf9 893e 53cd 7ebe
0.001414 -0.20952801 0.085941084 -0.29515427 0.27379695 0.66371846 0.92728996 2.0941448
-2.3636856 -2.5567904 -0.48798895 -0.28670877 -0.17235732 0.26948154 -0.24883012

input_to_hidden2.bias f4 [3]
00000000: db56 aabe 2723 ce3e d2ab 553e
-0.3326939 0.40261194 0.20866325

input_to_hidden3.weight f4 [1, 3]
00000000: 79e4 aebe 39aa 45c0 b6db 46be
-0.34158686 -3.0885146 -0.1941975
